baseline_model.pth (torch, 243143 bytes, 10 tensors)

conv1.weight f4 [6, 1, 3, 3]
-0.036620706 0.042461928 -0.030858487 0.07613523 0.057574373 0.043142203 0.06373543 0.010582356
-0.033952467 0.021053301 -0.107116014 -0.3732644 -0.0755804 -0.15708488 -0.15694506 -0.1606892
0.038451992 0.084880546 0.0009979334 0.049451277 0.08519668 -0.29585785 -0.005636345 -0.14553438
-0.019479146 -0.1244192 -0.07825909 -0.38439575 -0.12832019 -0.27005976 -0.16810453 0.16932037
-0.63384515 0.042544104 -0.13486095 -0.31653634 -0.09335711 -0.25244412 -0.1673406 0.03284934
0.0059025073 -0.061937887 0.10513412 0.021222135 -0.03608973 -0.6060061 -0.1159894 0.06280167
-0.33314666 -0.11655055 -0.06317745 -0.6026287 -0.16279425 -0.30424824
00000000: 98ff 15bd 8fec 2d3d f0ca fcbc caec 9b3d
00000010: 1bd3 6b3d e1b5 303d b987 823d 9e61 2d3c
00000020: be11 0bbd f977 ac3c a45f dbbd 831c bfbe
00000030: e6c9 9abd dcda 20be 35b6 20be b68b 24be
00000040: d67f 1d3d dad5 ad3d 17cd 823a 6c8d 4a3d
00000050: 997b ae3d ae7a 97be 17b1 b8bb f706 15be
00000060: bb92 9fbc 7ecf febd 4d46 a0bd 85cf c4be
00000070: 5e66 03be 4645 8abe 9823 2cbe 5262 2d3e
00000080: ad43 22bf ba42 2e3d fd18 0abe 0d11 a2be
00000090: 0332 bfbd 5b40 81be 565b 2bbe 088d 063d
000000a0: d269 c13b 95b2 7dbd 8f50 d73d 0bda ad3c
000000b0: d3d2 13bd 3723 1bbf da8b edbd 299e 803d
000000c0: 3392 aabe 0eb2 eebd 2e63 81bd e045 1abf
000000d0: 89b3 26be 6dc6 9bbe

conv1.bias f4 [6]
-2.0445428 0.20721422 -0.26795822 -0.015927102 -0.24339609 0.18325306
00000000: cad9 02c0 f72f 543e d231 89be 8e79 82bc
00000010: d33c 79be b1a6 3b3e

conv2.weight f4 [16, 6, 3, 3]
0.06945967 0.1527106 0.16712162 -0.35011163 -0.2571463 -0.4708558 0.124767624 0.075471744
-0.44410923 -0.05062861 -0.012343648 0.06705455 -0.22830193 -0.04188544 -0.21005958 -0.5853438
-0.62392473 -0.9493653 0.2952599 0.025167702 0.07923961 0.2036104 -0.17930607 -0.06581775
-0.0681501 -0.19642162 -0.23914158 -0.12190891 0.30531406 0.005225862 -0.16766745 0.29102656
0.13022812 0.04264701 0.062799565 0.29181188 -0.115610585 -0.026406735 0.14394504 -0.10419546
-0.11951312 -0.5359675 0.10662974 0.10975146 0.03324247 -0.32061273 -0.5402338 -0.17078698
-0.009578513 -0.121181585 -0.15609315 0.13058934 -0.1684706 -0.22151345 -0.16035898 -0.043062788
0.034880947 -0.16167004 -0.0981974 0.060868785 0.057350818 -0.43240878 -0.107299305 -0.18562071
-0.17612928 0.11032597 -0.2214953 -0.39515373 -0.43076855 0.052617468 -0.11772238 -0.5241471
0.07881984 0.050183818 0.041209184 -0.012573047 0.017294131 -0.09663282 -0.08836417 -0.096418716
0.09232302 -0.20828013 0.15359418 -0.12293651 0.06511166 -0.0565984 -0.23378448 0.079560265
-0.1406559 -0.2338851 0.0035682125 -0.22177851 -0.008845776 -0.0714577 -0.19674522 -0.05696239
-0.08930712 0.11336141 -0.006373298 0.30488923 -0.13336395 0.2620038 -0.073336236 0.02718117
-0.15490451 -0.35111007 0.022135675 0.41171739 -0.28311422 0.1905593 -0.54398304 -0.21978076
-0.24281983 -0.22425081 -0.12000932 -0.20544535 -0.010470612 0.026150355 0.04043085 -0.07077452
0.119917996 0.09766731 0.07547841 -0.24813668 -0.09038519 -0.12358256 0.08388906 0.33004698
-0.6443891 -0.04014583 -0.18499494 -0.33462495 -0.3633755 -0.098844744 0.032118946 0.1847328
-0.091502726 -0.0036925164 -0.38764668 -0.0019791867 -0.3149155 -0.08795788 0.11749825 -0.07610598
0.1163692 0.061074384 -0.17459878 -0.43213403 -0.25235566 0.039785866 0.00024071708 0.035647288
-0.23092379 0.13541517 0.38516572 -0.19256622 -0.0065052053 -0.41102034 -0.010333288 -0.06626225
0.008791018 -0.1631821 0.091222204 -0.47448003 -0.13804895 0.12538199 -0.038541075 0.13096245
-0.36652747 0.050764333 0.0022508402 -0.0370235 0.32307133 0.20353498 -0.013013033 0.37702227
-0.004598444 0.048268948 -0.15459785 0.059652336 0.14530213 -0.19415645 -0.2631247 0.09490552
-0.214072 -0.015200584 -0.5390329 -0.08833426 -0.30537078 0.18782656 0.0548524 -0.30838522
0.26813695 -0.54844767 0.059016977 0.18747956 0.09896921 0.2792388 0.08860697 -0.07584975
0.046267964 0.065995656 -0.44467515 0.02683383 0.012494681 -0.23968188 0.12772131 0.121677175
-0.037702974 0.011130198 -0.009242566 -0.41219217 -0.44122574 -0.22968027 0.098350234 -0.39856958
-0.11948459 -0.09693355 -0.07579653 -0.23301318 0.0387108 -0.113288045 0.0053492566 -0.050368045
-0.19846877 -0.24599287 -0.06450149 0.040531214 -0.052115023 -0.20459147 -0.072457075 0.07098519
-0.07735593 -0.029076608 0.23332171 -0.2195419 -0.28359833 -0.17831413 -0.08017738 -0.34448949
-0.17016247 -0.26749688 -0.26809692 -0.08823397 -0.06539732 -0.12778792 0.008901631 -0.12297238
-0.0018781729 -0.18757528 0.005510284 -0.19128191 -0.184238 -0.080395736 0.05402935 -0.04624235
00000000: df40 8e3d 2b60 1c3e ee21 2b3e d541 b3be
00000010: aea8 83be 0314 f1be 2b86 ff3d ee90 9a3d
00000020: 4962 e3be f25f 4fbd 033d 4abc e553 893d
00000030: fbc7 69be 1190 2bbd dc19 57be 17d9 15bf
00000040: 88b9 1fbf 9b09 73bf 4e2c 973e 7f2c ce3c
00000050: 6048 a23d 3f7f 503e 039c 37be 75cb 86bd
00000060: 4892 8bbd c022 49be 88e1 74be 61ab f9bd
00000070: 2052 9c3e b53d ab3b 04b1 2bbe 6f01 953e
00000080: 855a 053e a2ae 2e3d 0f9d 803d 5e68 953e
00000090: 3ec5 ecbd f052 d8bc 5466 133e 6e64 d5bd
000000a0: 4bc3 f4bd 2b35 09bf b160 da3d 60c5 e03d
000000b0: 4229 083d 5a27 a4be c34c 0abf c8e2 2ebe
000000c0: 32ef 1cbc 0d2e f8bd e2d6 1fbe 36b9 053e
000000d0: 8f83 2cbe 6cd4 62be 2535 24be 9b62 30bd
000000e0: 53df 0e3d d58c 25be b81b c9bd 8c51 793d
000000f0: b1e8 6a3d af64 ddbe bdbf dbbd 5b13 3ebe
00000100: 3c5b 34be 95f2 e13d aacf 62be 9751 cabe
00000110: b28d dcbe 6a85 573d 6e18 f1bd 812e 06bf
00000120: 4c6c a13d 8c8d 4d3d f6ca 283d 2eff 4dbc
00000130: 6cac 8d3c 6ee7 c5bd 46f8 b4bd 2d77 c5bd
00000140: da13 bd3d 6347 55be cb47 1d3e 23c6 fbbd
00000150: 4359 853d b9d3 67bd 3365 6fbe 7ef0 a23d
00000160: 1a08 10be 937f 6fbe acd8 693b e819 63be
00000170: e0ed 10bc 6a58 92bd 9477 49be 6551 69bd
00000180: a7e6 b6bd 072a e83d 19d7 d0bb 711a 9c3e
00000190: 8f90 08be 5d25 863e 4f31 96bd 0cab de3c
000001a0: 4a9f 1ebe b3c4 b3be e055 b53c 9fcc d23e
000001b0: 59f4 90be fa21 433e 7942 0bbf 350e 61be
000001c0: c3a5 78be 01a2 65be 72c7 f5bd 4460 52be
000001d0: ee8c 2bbc 4539 d63c d29a 253d 3bf2 90bd
000001e0: 9197 f53d cc05 c83d 6d94 9a3d 8b17 7ebe
000001f0: df1b b9bd da18 fdbd 07ce ab3d ebfb a83e
00000200: aff6 24bf f46f 24bd 506f 3dbe f653 abbe
00000210: 5b0c babe 1d6f cabd 288f 033d 982a 3d3e
00000220: c865 bbbd 25fe 71bb a079 c6be 3eb5 01bb
00000230: 9b3c a1be 4323 b4bd eca2 f03d 74dd 9bbd
00000240: fa52 ee3d 2229 7a3d 06ca 32be ac40 ddbe
00000250: c334 81be 81f6 223d 0069 7c39 e402 123d
00000260: 4977 6cbe 46aa 0a3e 7134 c53e 1430 45be
00000270: 9e29 d5bb 4271 d2be f44c 29bc 81b4 87bd
00000280: 3408 103c 3519 27be b5d2 ba3d 0cef f2be
00000290: b45c 0dbe 2364 003e 3fdd 1dbd 051b 063e
000002a0: 7da9 bbbe 43ee 4f3d d582 133b f4a5 17bd
000002b0: 9b69 a53e 796b 503e 9e34 55bc 1009 c13e
000002c0: 8bae 96bb a9b5 453d e64e 1ebe 0256 743d
000002d0: 15ca 143e f3d0 46be 48b8 86be d35d c23d
000002e0: b135 5bbe df0b 79bc 0ffe 09bf 98e8 b4bd
000002f0: 8f59 9cbe 9b55 403e e9ac 603d abe4 9dbe
00000300: 3f49 893e 1167 0cbf c9bb 713d a4fa 3f3e
00000310: 5fb0 ca3d 63f8 8e3e 9277 b53d 1d57 9bbd
00000320: 7a83 3d3d bb28 873d 76ac e3be 9fd2 db3c
00000330: 7eb6 4c3c 2b6f 75be 60c9 023e e231 f93d
00000340: 6f6e 1abd 6f5b 363c 226e 17bc da0a d3be
00000350: 57e8 e1be 4e31 6bbe d96b c93d 5011 ccbe
00000360: 56b4 f4bd 1985 c6bd 363b 9bbd 029b 6ebe
00000370: 378f 1e3d 9003 e8bd d148 af3b b94e 4ebd
00000380: 663b 4bbe 8ee5 7bbe 5b19 84bd 0f04 263d
00000390: 9076 55bd 6d80 51be 6064 94bd af60 913d
000003a0: c96c 9ebd 1132 eebc e3eb 6e3e 98cf 60be
000003b0: cd33 91be fb97 36be 0a34 a4bd ed60 b0be
000003c0: 123f 2ebe 5af5 88be 0044 89be 03b4 b4bd
000003d0: 08ef 85bd d6da 02be 26d8 113c f1d8 fbbd
000003e0: 062d f6ba bc13 40be 9d8f b43b 68df 43be
000003f0: e3a8 3cbe 85a6 a4bd e14d 5d3d 9e68 3dbd

conv2.bias f4 [16]
-0.75454986 -0.022047859 -0.19278727 -0.85404724 -0.17075625 -0.3203142 0.034155894 -0.4982429
-0.021427995 -0.3752178 -0.17229915 -0.1166281 -0.22603142 -0.26548582 -0.95174885 -0.0064843255
00000000: 2e2a 41bf b69d b4bc 076a 45be d7a2 5abf
00000010: bada 2ebe 3900 a4be 0de7 0b3d b219 ffbe
00000020: c389 afbc 8c1c c0be 306f 30be b7da eebd
00000030: c874 67be c2ed 87be d0a5 73bf 777a d4bb

fc1.weight f4 [120, 400]
-0.19676158 0.014094706 -0.41474754 -0.23318549 -0.1657512 -0.1846016 -0.13275038 0.33859023
-0.35105184 -0.3097644 0.16034518 0.023283344 -0.20771602 -0.23477398 0.2805535 0.046562217
-0.13071035 -0.48884574 -0.10320556 0.02709719 -0.33576697 -0.5134477 -0.31143627 -0.72428834
-0.84995663 -0.05247346 0.17877147 0.0800831 0.3183027 0.25495538 0.04660137 0.07735337
0.06605849 -0.1532329 0.055687927 0.27686512 0.13266215 -0.1733951 -0.19389787 -0.45950755
0.072735794 0.05124032 -0.28287035 0.14104937 0.12679738 -0.18613161 0.09557398 0.05667293
-0.4531781 -0.000399368 -0.04202956 0.11847455 0.0021843414 -0.20142148 -0.2016782 0.04461233
0.029663261 -0.19088504 0.05814664 0.03940285 -0.19548461 0.08192814 -0.02891769 -0.13888426
0.11841752 -0.10648673 -0.1908345 -0.0006645637 0.07363302 -0.16842261 -0.29514226 0.23704417
-0.036002 0.114307 0.006394337 0.21286654 0.038399875 -0.18018992 0.092472404 0.29235753
0.18211916 0.12053442 -0.44818255 0.0021673576 0.19325875 -0.3784486 -0.0030510842 -0.3637498
0.18394874 0.19154248 -0.4784841 0.26172644 -0.22934142 -0.7802302 -0.52268726 0.021453444
0.13002446 -0.39752564 0.15204795 0.13648035 -0.024553815 0.024812588 -0.0064515704 -0.01793015
-0.021925693 -0.08098525 -0.0005035107 -0.015613475 -0.015670585 0.023842681 0.0649721 -0.024789324
0.011588653 0.030410059 -0.09908308 -0.12004946 -0.08262431 0.030460918 -0.02073474 0.00096703164
0.034777164 -0.035495758 0.031644993 0.11283624 -0.08711853 -0.08249713 -0.2711333 0.04486171
0.023164073 -0.08160988 -0.44853094 -0.06798614 0.45142773 0.05288625 -0.15406002 -0.22240905
-0.21721122 0.16341406 -0.352057 0.31517294 0.19585682 -0.087177984 -0.9079587 -0.33719257
0.0831545 0.0035568264 -0.42204976 -0.34332463 -0.038388796 -0.3221859 0.25195178 0.003695692
-0.12634225 -0.13064866 -0.058892924 -0.17020682 -0.17117819 -0.39874256 -0.044143755 0.12922756
-0.2605585 0.06396262 -0.277905 -0.14430095 -0.12948608 0.44522175 -0.11752918 -0.39289793
-0.41559714 -0.24951783 -0.14384149 -0.16964366 -0.774075 -0.10691457 0.29450047 -0.1466505
-0.35215986 -0.31608367 0.08398578 0.24117792 -0.1705972 -0.3552031 0.189086 -0.18737756
-0.043116733 0.31355053 0.37768218 0.26691958 -0.18353894 -0.1385144 0.034628574 0.22735853
-0.24368767 0.085424885 0.4716519 -0.23284532 -0.27228266 0.4384659 -0.14506358 -0.12783645
-0.089097045 0.016143251 -0.00830938 -0.11277408 -0.027311116 -0.028547518 -0.017129736 -0.07920914
-0.13814884 0.10863547 -0.036089104 -0.002702563 -0.135776 -0.008017592 0.45627165 0.032760855
-0.06396195 -0.11434574 -0.06432231 0.28429013 0.001154637 -0.04143433 -0.02606363 -0.43211648
-0.112449676 0.015909428 -0.060759395 -0.057712685 -0.10447225 -0.008403366 -0.052680213 -0.29834217
0.0041366033 0.033862192 0.040082935 0.07616876 0.022401804 -0.10946966 -0.047092363 0.013630635
-0.13245529 -0.02706395 -0.18400323 -0.002618611 -0.00841137 0.22962439 0.2571593 -0.013637985
0.071062736 0.012661331 0.0951742 -0.15474111 -0.38424852 0.017945083 -0.28555432 0.050398707
00000000: de7b 49be 7bed 663c ca59 d4be 2dc8 6ebe
00000010: afba 29be 3408 3dbe b7ef 07be b35b ad3e
00000020: 11bd b3be 7099 9ebe 8731 243e b6bc be3c
00000030: 82b3 54be 9768 70be b5a4 8f3e 06b8 3e3d
00000040: efd8 05be fd49 fabe 705d d3bd edfa dd3c
00000050: a6e9 abbe 4f71 03bf 9374 9fbe f66a 39bf
00000060: c296 59bf 69ee 56bd de0f 373e 9c02 a43d
00000070: 92f8 a23e 8389 823e 14e1 3e3d 726b 9e3d
00000080: ac49 873d 16e9 1cbe 0619 643d 44c1 8d3e
00000090: 96d8 073e 7c8e 31be 2a8d 46be 9344 ebbe
000000a0: 81f6 943d 5fe1 513d 62d4 90be 3f6f 103e
000000b0: 2cd7 013e 4999 3ebe 4abc c33d e021 683d
000000c0: f606 e8be 4462 d1b9 3027 2cbd c9a2 f23d
000000d0: 2b27 0f3b 6f41 4ebe bb84 4ebe 6bbb 363d
000000e0: 5e00 f33c 5e77 43be 2c2b 6e3d e264 213d
000000f0: 1e2d 48be f1c9 a73d cbe4 ecbc ad37 0ebe
00000100: e284 f23d b715 dabd 1f6a 43be 1d36 2eba
00000110: e9cc 963d fa76 2cbe e31c 97be b5bb 723e
00000120: d576 13bd ca19 ea3d 9687 d13b b0f9 593e
00000130: 3049 1d3d b583 38be 2c62 bd3d e3af 953e
00000140: 727d 3a3e c0da f63d 2f78 e5be 3a0a 0e3b
00000150: 9fe5 453e 04c4 c1be b3f4 47bb 6a3d babe
00000160: 0f5d 3c3e b623 443e defb f4be 0201 863e
00000170: 7ad8 6abe 2bbd 47bf d5ce 05bf 22bf af3c
00000180: 2225 053e 7b88 cbbe 75b2 1b3e 81c1 0b3e
00000190: 1525 c9bc c543 cb3c b267 d3bb 40e2 92bc
000001a0: 839d b3bc 98db a5bd 08fe 03ba a9cf 7fbc
000001b0: 995f 80bc ba51 c33c 1810 853d fb12 cbbc
000001c0: 55de 3d3c 841e f93c 12ec cabd 7edc f5bd
000001d0: ef36 a9bd 2d89 f93c e7db a9bc 6580 7d3a
000001e0: 8072 0e3d 0064 11bd 2e9e 013d b016 e73d
000001f0: 336b b2bd 41f4 a8bd fcd1 8abe eac0 373d
00000200: 95c2 bd3c 1523 a7bd d9a5 e5be 513c 8bbd
00000210: 8921 e73e 419f 583d e9c1 1dbe 33bf 63be
00000220: 9e6c 5ebe 0456 273e d140 b4be 595e a13e
00000230: b18e 483e 5f8a b2bd fb6f 68bf 81a4 acbe
00000240: e84c aa3d a519 693b e816 d8be 3fc8 afbe
00000250: 923d 1dbd 8df5 a4be d3ff 803e 6c33 723b
00000260: dd5f 01be c3c8 05be b539 71bd b24a 2ebe
00000270: 5649 2fbe fc27 ccbe 15d0 34bd 3b54 043e
00000280: ec67 85be d6fe 823d 9049 8ebe a1c3 13be
00000290: 0098 04be 1bf4 e33e 24b3 f0bd eb29 c9be
000002a0: 26c9 d4be 9a81 7fbe 2f4b 13be 11b7 2dbe
000002b0: c729 46bf 07f6 dabd c4c8 963e 8c2b 16be
000002c0: 4c4e b4be b8d5 a1be bd00 ac3d 58f7 763e
000002d0: 08b1 2ebe 2edd b5be c39f 413e e7df 3fbe
000002e0: 2c9b 30bd b289 a03e 8f5f c13e afa9 883e
000002f0: a2f1 3bbe b8d6 0dbe b1d6 0d3d add0 683e
00000300: 4389 79be 3ef3 ae3d 5c7c f13e 016f 6ebe
00000310: a268 8bbe 9a7e e03e 8c8b 14be 8fe7 02be
00000320: 8378 b6bd da3e 843c 1124 08bc 19f6 e6bd
00000330: 90bb dfbc 7cdc e9bc a953 8cbc 6738 a2bd
00000340: e476 0dbe 467c de3d 2bd2 13bd 7c1d 31bb
00000350: dd08 0bbe 385c 03bc 709c e93e 3f30 063d
00000360: 7cfe 82bd 192e eabd 6abb 83bd 7a8e 913e
00000370: 3057 973a 0bb7 29bd 6583 d5bc 5f3e ddbe
00000380: 044c e6bd 7d54 823c d8de 78bd 2364 6cbd
00000390: 8cf5 d5bd 46ae 09bc 35c7 57bd 4ec0 98be
000003a0: 588c 873b 15b3 0a3d 012e 243d 5efe 9b3d
000003b0: fd83 b73c a131 e0bd ece3 40bd 0753 5f3c
000003c0: 5ca2 07be 38b5 ddbc 586b 3cbe 019d 2bbb
000003d0: d8cf 09bc a822 6b3e 62aa 833e db71 5fbc
000003e0: 5789 913d 7971 4f3c b1ea c23d 7474 1ebe
000003f0: 39bc c4be 9101 933c 2d34 92be e06e 4e3d

fc1.bias f4 [120]
0.14338325 -0.023340715 -0.040546905 -0.06718127 -0.031592675 -0.19485188 -0.33827344 -0.23950657
0.013997685 0.21415761 0.120078065 0.15709415 0.010841398 -0.039877277 -0.0032869752 -0.30573338
-0.040460683 -0.25999779 -0.0033502227 0.0052192938 0.05734558 -0.017248211 0.0880987 -0.0721848
-0.022643013 -0.078810066 -0.3513253 -0.0689176 -0.15248924 -0.065053284 -0.057123635 -0.20602296
-0.054299805 0.018986247 0.025461685 -0.054668665 -0.040898394 -0.051055767 -0.19870615 -0.25603297
-0.09531193 0.10765616 0.1489038 0.0002649892 -0.020910887 0.0016536249 -0.020631451 -0.00893268
-0.0005906503 -0.06189579 -0.117733784 -0.06921726 -0.11919963 0.003140792 -0.0092337625 -0.20840254
-0.25340185 0.036626637 -0.26570246 -0.1692401 -0.018266402 -0.062346287 -0.16802427 -0.11786771
0.011414564 -0.013941355 0.1855022 -0.027431596 0.16055489 -0.011623252 -0.03951466 -0.074879296
-0.0553683 0.08375129 -0.26014414 -0.1937229 -0.21046259 -0.08660007 -0.010601783 -0.18022336
-0.09209123 -0.03473393 -0.024062783 -0.16481511 -0.013330605 -0.12411677 0.034494802 0.030329002
0.004861889 -0.10427946 0.018184002 0.0027361496 -0.1517651 -0.037674055 -0.2531591 -0.017947037
-0.06576595 0.004041666 -0.0052580074 0.0045590103 0.012040543 -0.02483621 -0.120539114 0.211992
-0.027497908 -0.07165614 -0.14307952 0.16579086 0.0034934632 0.004772712 0.11166883 -0.032504693
-0.2031805 -0.0762739 0.13145505 -0.25036383 -0.21779552 0.12464459 0.20590006 -0.241499
00000000: 0fd3 123e 0735 bfbc 8314 26bd 5596 89bd
00000010: 5267 01bd 4087 47be 2d32 adbe 3641 75be
00000020: 8c56 653c 224c 5b3e 7deb f53d 4add 203e
00000030: 1ea0 313c 5b56 23bd 4b6a 57bb 1689 9cbe
00000040: 1aba 25bd 6e1e 85be 698f 5bbb 9c06 ab3b
00000050: 33e3 6a3d 1f4c 8dbc 176d b43d a0d5 93bd
00000060: d77d b9bc 2c67 a1bd e9e0 b3be ac24 8dbd
00000070: 2426 1cbe a83a 85bd 79fa 69bd aff7 52be
00000080: 7969 5ebd 0c89 9b3c 0695 d03c 40ec 5fbd
00000090: 1385 27bd da1f 51bd a079 4bbe c116 83be
000000a0: e732 c3bd d57a dc3d 3d7a 183e 40ee 8a39
000000b0: 4f4d abbc 72be d83a 4a03 a9bc 605a 12bc
000000c0: dfd5 1aba 7186 7dbd 691e f1bd c7c1 8dbd
000000d0: f01e f4bd bfd5 4d3b 3549 17bc 7a67 55be
000000e0: e3bd 81be d005 163d 270a 88be 474d 2dbe
000000f0: 6ca3 95bc d25e 7fbd 8e0e 2cbe a064 f1bd
00000100: 2704 3b3c 486a 64bc 4af4 3d3e 3ab8 e0bc
00000110: 8068 243e 746f 3ebc 20da 21bd 515a 99bd
00000120: dfc9 62bd cc85 ab3d 9d31 85be 4c5f 46be
00000130: 8183 57be 615b b1bd 1ab3 2dbc 798c 38be
00000140: 549a bcbd 2a45 0ebd 501f c5bc 4bc5 28be
00000150: 9c68 5abc ef30 febd 6c4a 0d3d 8774 f83c
00000160: 7b50 9f3b 7890 d5bd 9ef6 943c f950 333b
00000170: 4f68 1bbe 1c50 1abd 129e 81be aa05 93bc
00000180: 4cb0 86bd f46f 843b 5d4b acbb c063 953b
00000190: b345 453c 4f75 cbbc 36dd f6bd 6e14 593e
000001a0: 4b43 e1bc 74c0 92bd 7083 12be 14c5 293e
000001b0: 96f2 643b 6964 9c3b a1b2 e43d a423 05bd
000001c0: 8d0e 50be 7e35 9cbd 279c 063e b02f 80be
000001d0: ca05 5fbe aa45 ff3d 77d7 523e 844b 77be

fc2.weight f4 [84, 120]
-0.1601766 -0.24339269 -0.11024763 0.039789956 -0.056885242 0.115445465 0.07838081 -0.025240697
-0.34470227 0.04152611 -0.1616348 0.045115776 0.03278756 0.03894428 0.055129644 -0.05417577
-0.112451844 -0.027662702 0.20885839 -0.047793597 -0.10872045 -0.004867527 0.0066224006 0.035355564
-0.22891338 0.019111397 -0.2569545 0.03468337 -0.29490015 0.040663164 -0.056901135 -0.3496166
-0.21751279 -0.08004929 0.24077125 0.04967895 -0.0024377555 0.021651495 -0.1663652 0.039020635
-0.107661 0.008849031 -0.27001742 -0.046901286 0.016597547 0.016645059 0.28963104 -0.058600992
-0.021737872 -0.03379444 0.12131525 0.053345934 -0.39629105 -0.05941873 -0.2737425 -0.0020184563
-0.07541525 -0.61988467 -0.13411857 0.021699572 0.07783641 -0.42460057 -0.12218837 0.2340656
0.0271033 -0.067454986 -0.2692131 0.07098158 -0.011977494 -0.026842572 -0.04859535 -0.109790914
-0.009573402 0.020684477 -0.103277095 0.005733843 -0.14768219 0.1090753 -0.056198932 -0.19362594
-0.022631278 -0.08567214 -0.040574893 0.34297684 -0.022822386 0.2249185 -0.017203191 -0.35640255
-0.015414236 0.1558523 0.036593437 0.034784243 0.05920448 0.022795787 -0.33237857 0.13677597
0.046468787 -0.030331375 -0.030904258 -0.10714565 -0.060916085 -0.021548662 -0.35662577 0.19289562
0.04419418 -0.013901248 -0.14161454 0.17917803 -0.056359872 0.048960447 0.19160688 0.038852215
-0.11665211 -0.11319027 0.09529016 -0.11765075 -0.006950675 -0.010482633 0.12356786 -0.1128797
-0.32017326 -0.35437515 0.049546726 0.074841 -0.012088425 -0.2405516 0.06575132 -0.18420176
-0.23580539 -0.31487003 0.0006872804 -0.0036546034 0.08385588 0.10778564 0.026521722 -0.06432166
0.010340117 -0.0859704 -0.029358825 0.08161219 -0.31321767 0.120044135 0.07183043 -0.040755115
-0.475399 0.014384956 -0.3051517 -0.011816523 -0.43782848 -0.039427105 -0.0809775 -0.21283382
-0.20287965 -0.09623294 -0.20308153 -0.057208158 0.02334248 0.034328245 -0.020776048 -0.015648948
0.02768811 0.11017675 -0.45690733 -0.024589252 0.07674563 -0.0074304943 -0.014737974 0.009330445
0.069037475 0.06984667 -0.06926759 -0.05607679 -0.11231421 -0.053885575 -0.13253239 -0.32725397
-0.061279275 -0.16007714 -0.046142302 0.13429819 0.029932387 -0.22260046 -0.051953852 -0.4362144
0.091753855 0.042962577 -0.081195496 -0.05295563 -0.23883119 -0.4588147 0.101124965 -0.09278253
0.027709005 -0.1954853 0.024166683 0.09027283 -0.098652825 0.02083413 0.050915226 -0.02138147
-0.05408235 0.02740075 0.1110773 0.10656574 -0.07709529 -0.12042183 -0.07128716 -0.18960772
-0.011627203 -0.0033099297 -0.11419582 -0.06328868 0.1800579 0.03439411 -0.0033445335 -0.40082964
-0.033348225 -0.042692684 0.032819055 -0.0065699564 -0.011173813 0.005712052 -0.16509217 0.07076611
-0.04094664 0.033440806 0.04340944 0.04691012 0.063804045 -0.05431544 0.15551256 0.026220653
-0.1093205 -0.12189635 -0.14525095 0.30719438 -0.025338793 -0.03374178 0.10352045 -0.42056692
-0.35507342 -0.15801688 -0.059856173 -0.049687464 0.054009542 -0.38353223 0.062096722 -0.10862582
-0.16459848 -0.097088404 -0.1632569 -0.0032871857 0.0042157024 -0.103988215 -0.050876137 -0.33154857
00000000: 5605 24be ef3b 79be 82c9 e1bd cbfa 223d
00000010: 8000 69bd ac6e ec3d 1e86 a03d 94c5 cebc
00000020: d17c b0be 4817 2a3d 9883 25be 52cb 383d
00000030: 404c 063d 0a84 1f3d 9fcf 613d 6ae7 5dbd
00000040: 274d e6bd e49c e2bc f9de 553e 38c3 43bd
00000050: d4a8 debd c77f 9fbb b900 d93b ffd0 103d
00000060: 4568 6abe 818f 9c3c 8a8f 83be 2610 0e3d
00000070: 27fd 96be 6b8e 263d 2a11 69bd f200 b3be
00000080: acbb 5ebe e2f0 a3bd bd8c 763e 287c 4b3d
00000090: c0c2 1fbb 7a5e b13c a45b 2abe 1ad4 1f3d
000000a0: 5f7d dcbd 87fb 103c b93f 8abe 901b 40bd
000000b0: 94f7 873c 385b 883c 854a 943e 9807 70bd
000000c0: 9f13 b2bc 0a6c 0abd 2174 f83d 4481 5a3d
000000d0: a9e6 cabe 0e61 73bd fa27 8cbe 1448 04bb
000000e0: 5073 9abd c3b0 1ebf 6156 09be 4dc3 b13c
000000f0: b268 9f3d 3f65 d9be e53d fabd e5ae 6f3e
00000100: bd07 de3c d725 8abd 4dd6 89be ca5e 913d
00000110: 403d 44bc f4e4 dbbc eb0b 47bd 0fda e0bd
00000120: c2d9 1cbc 7e72 a93c f182 d3bd f6e2 bb3b
00000130: 003a 17be df62 df3d da30 66bd e145 46be
00000140: 3b65 b9bc e074 afbd dc31 26bd a99a af3e
00000150: 03f6 babc 0951 663e b5ed 8cbc 657a b6be
00000160: fe8b 7cbc bf97 1f3e 00e3 153d ec79 0e3d
00000170: 6680 723d 3bbe ba3c 862d aabe 000f 0c3e
00000180: 0e56 3e3d 8179 f8bc ed2a fdbc 2e6f dbbd
00000190: 2583 79bd d286 b0bc a797 b6be 6e86 453e
000001a0: f504 353d 0fc2 63bc 6703 11be 727a 373e
000001b0: 9cd9 66bd c08a 483d 9834 443e 8023 1f3d
000001c0: 4de7 eebd 4dd0 e7bd 7d27 c33d e0f2 f0bd
000001d0: 7dc2 e3bb 59bf 2bbc 2511 fd3d 792d e7bd
000001e0: c0ed a3be a970 b5be 82f1 4a3d 3d46 993d
000001f0: 880e 46bc 2953 76be a1a8 863d 639f 3cbe
00000200: f876 71be a536 a1be 9b2a 343a 1282 6fbb
00000210: a2bc ab3d b8be dc3d 1544 d93c 13bb 83bd
00000220: 9869 293c 4011 b0bd eb81 f0bc 4b24 a73d
00000230: 115e a0be b3d9 f53d d51b 933d d6ee 26bd
00000240: 7f67 f3be e1ae 6b3c d83c 9cbe 179a 41bc
00000250: 0e2b e0be 517e 21bd 88d7 a5bd 1cf1 59be
00000260: afbf 4fbe c715 c5bd 9bf4 4fbe 1a53 6abd
00000270: bb38 bf3c c69b 0c3d 8832 aabc 3932 80bc
00000280: 2dd2 e23c 59a4 e13d c2ef e9be 666f c9bc
00000290: d02c 9d3d 817b f3bb 8b77 71bc b9de 183c
000002a0: 8563 8d3d c50b 8f3d 2bdc 8dbd c7b0 65bd
000002b0: fe04 e6bd 1fb7 5cbd 92b6 07be d58d a7be
000002c0: faff 7abd 43eb 23be b6ff 3cbd 7785 093e
000002d0: c434 f53c 60f1 63be 90cd 54bd 7e57 dfbe
000002e0: 72e9 bb3d 87f9 2f3d d349 a6bd 01e8 58bd
000002f0: 2a90 74be c3e9 eabe 9b1a cf3d c404 bebd
00000300: fffd e23c 4c2d 48be 35f9 c53c f6e0 b83d
00000310: 7e0a cabd 56ac aa3c 7c8c 503d 3128 afbc
00000320: 7485 5dbd 8a77 e03c 7f7c e33d 243f da3d
00000330: 23e4 9dbd b89f f6bd 01ff 91bd 8728 42be
00000340: 0680 3ebc 68eb 58bb 80df e9bd 7f9d 81bd
00000350: 1961 383e d7e0 0c3d f62f 5bbb 8b39 cdbe
00000360: 2698 08bd 86de 2ebd 466d 063d ca48 d7bb
00000370: 5e12 37bc 2a2c bb3b ec0d 29be d3ed 903d
00000380: aab7 27bd 3af9 083d 19ce 313d d324 403d
00000390: b2ab 823d de79 5ebd af3e 1f3e b2cc d63c
000003a0: 6de3 dfbd cba4 f9bd aabc 14be 9548 9d3e
000003b0: 4d93 cfbc d234 0abd 8802 d43d 8c54 d7be
000003c0: 2fcc b5be 2dcf 21be bf2b 75bd 1585 4bbd
000003d0: 1c39 5d3d 565e c4be 2259 7e3d 3777 debd
000003e0: 818c 28be 49d6 c6bd d12c 27be d36d 57bb
000003f0: e023 8a3b c6f7 d4bd 7f63 50bd bcc0 a9be

fc2.bias f4 [84]
-0.119144715 -0.006808886 -0.40884864 0.30566776 0.11954099 0.07735161 -0.26467413 -0.36861044
0.055441804 0.05119191 0.26012823 -0.03963011 0.062335316 -0.21558519 -0.05327594 0.39178222
-0.1899109 -0.10624304 -0.039338678 -0.111602694 0.22964096 0.3137268 -0.25910202 -0.47703612
0.07139157 0.24933529 -0.7288155 0.2030084 -0.15543638 -0.24667439 -0.27196717 -0.22710994
-0.22986415 0.10340123 0.3275126 -0.119545296 0.08964227 -0.010841864 -0.034331094 0.22671464
0.08110098 0.036077376 0.17229816 0.49249506 -0.03162884 -0.35182053 0.1254376 0.12118567
0.45874444 0.028664641 0.2923919 -0.55034226 0.40997195 0.13348234 -0.22247833 0.1797191
0.47014514 0.044783685 0.08877846 -0.31028748 0.4524526 -0.2646378 0.26959082 -0.37309557
0.080283865 0.26541302 0.36656037 0.13325974 0.087187424 0.28565526 0.0044345306 0.28252384
-0.043640867 0.13381135 -0.5057186 -0.07245635 0.22781636 0.6910628 0.10241386 0.18355949
0.250737 0.23010908 0.22174352 -0.14682811
00000000: 2502 f4bd 131d dfbb 9c54 d1be 7c80 9c3e
00000010: e8d1 f43d 856a 9e3d 5e83 87be 82ba bcbe
00000020: f216 633d 9cae 513d 872f 853e 2f53 22bd
00000030: 5153 7f3d 5dc2 5cbe df37 5abd ae97 c83e
00000040: 0178 42be f395 d9bd 9821 21bd f48f e4bd
00000050: 0027 6b3e cda0 a03e 05a9 84be 143e f4be
00000060: be35 923d c051 7f3e a793 3abf 6fe1 4f3e
00000070: b72a 1fbe 3698 7cbe 483f 8bbe 828f 68be
00000080: 8261 6bbe 06c4 d33d bbaf a73e 2ad4 f4bd
00000090: 5e96 b73d 13a2 31bc c39e 0cbd e227 683e
000000a0: 4518 a63d dfc5 133d ee6e 303e 5028 fc3e
000000b0: 3e8d 01bd d221 b4be b772 003e 3130 f83d
000000c0: 8de0 ea3e 1cd2 ea3c 64b4 953e 3be3 0cbf
000000d0: d8e7 d13e 98af 083e 5cd1 63be 4908 383e
000000e0: ddb6 f03e 196f 373d 7bd1 b53d 00de 9ebe
000000f0: dea7 e73e 9b7e 87be cf07 8a3e 6206 bfbe
00000100: de6b a43d 37e4 873e cdad bb3e 3e75 083e
00000110: 528f b23d 6841 923e 8a4f 913b f7a6 903e
00000120: c4c0 32bd d805 093e c676 01bf ff63 94bd
00000130: b148 693e 7ee9 303f 5cbe d13d 05f7 3b3e
00000140: 9a60 803e b7a1 6b3e bc10 633e 1c5a 16be

fc3.weight f4 [10, 84]
-0.037827067 -0.08213317 -0.048513055 -0.06669419 -0.1647695 -0.0318144 -0.13201539 -0.10571668
-0.13695136 0.11552145 -0.023081325 0.059231915 0.03628121 0.01069795 0.039341703 -0.11265426
0.073312424 -0.22506382 -0.100891806 -0.32226288 -0.12936847 -0.16638865 0.13983211 -0.11423213
0.06099306 -0.19688265 -0.07515567 -0.09811454 -0.019858755 0.082336105 0.043695472 -0.16349624
-0.046468914 0.12131628 -0.33180156 0.12679565 0.022162318 0.1483922 -0.16785735 -0.15286112
0.118465975 -0.30782187 -0.06901294 -0.2016888 0.020647647 0.115251645 -0.29205534 0.035400648
0.06627544 -0.21558306 -0.048072807 -0.04854923 -0.12986389 0.12209335 -0.11751479 -0.19222578
-0.30705976 0.04835142 -0.1699782 0.018193152 -0.26831862 -0.19889188 -0.12452671 -0.0031179897
-0.045096043 -0.20984398 0.042162105 -0.14442746 -0.07893368 0.14178377 -0.12277182 -0.26869336
0.1845552 -0.19051652 -0.07337386 0.12669833 0.1754967 0.04623924 0.0018608818 0.10049176
-0.032249793 -0.088108644 0.08539704 0.092328325 0.13949843 0.05523981 -0.044522513 0.14745332
-0.110622324 0.12910181 -0.2186467 -0.4170149 0.073029 0.13364875 -0.16742155 0.07945764
-0.0009122274 -0.15769418 0.10615007 -0.01597139 -0.099735975 0.10940875 0.027749695 -0.037345048
0.0070131305 0.050174247 -0.256635 0.09080256 -0.12532924 0.035626203 -0.016800363 0.037191402
0.050841056 0.029710628 0.025629098 0.061702766 -0.22437412 -0.098367095 0.11412119 -0.31331804
-0.41366127 0.08623233 -0.01570303 -0.30859908 -0.020366754 0.1182398 0.021580506 0.030264366
-0.037644144 -0.0206206 0.16457058 -0.1436836 0.17420217 -0.053165775 0.020943763 -0.12991334
-0.10713123 -0.026908854 -0.07002203 0.056347024 -0.009268386 -0.0420048 0.1211701 -0.12657294
-0.008829515 -0.05052405 -0.060691237 -0.024591418 0.10749159 0.100850314 0.0024569838 -0.20888959
-0.2581762 -0.25780863 -0.110587046 -0.08854254 -0.05040906 0.068410516 0.08417878 -0.18217862
-0.18680277 0.05059616 0.00404131 -0.14681852 -0.055171188 -0.002915029 0.063621685 0.029312566
0.13027398 0.13160753 0.0037466367 0.077332504 0.0643242 -0.03656435 0.015065025 -0.101202205
-0.053423762 -0.08452592 -0.14704798 0.12032482 0.12015162 -0.04911419 -0.0028736952 0.055351842
0.05870646 0.09739029 0.116540104 0.001185219 -0.12904464 0.020264823 -0.0020911281 -0.25162905
0.016182367 0.14281966 0.020347863 0.054437406 -0.030843489 -0.009234835 0.08343388 0.13791773
-0.2547274 -0.032544713 0.011884935 -0.055053532 -0.18599367 -0.052473616 0.011819996 -0.16768117
-0.13950773 0.08460337 0.07420248 -0.06286032 -0.034934215 -0.08777709 -0.07121484 -0.07059184
-0.13923892 0.019294284 0.1636037 -0.07761393 -0.102753125 0.14183047 -0.047166854 -0.04070506
-0.061082922 0.12434253 -0.05969981 -0.035996035 0.10771436 -0.02055345 0.05026892 0.114388935
0.021045323 -0.0832733 -0.013913006 -0.08194335 -0.07755568 -0.054196678 -0.089269884 -0.021453002
-0.016143665 -0.053433474 -0.029872527 0.035347518 -0.053616337 -0.20548606 0.14898086 0.017066754
-0.074041 -0.049794823 0.027282758 0.08560926 -0.0073725036 0.0054992456 0.025800116 -0.08585984
00000000: 8ef0 1abd 6f35 a8bd a0b5 46bd f796 88bd
00000010: 56b9 28be d14f 02bd 0b2f 07be fd81 d8bd
00000020: fa3c 0cbe 8396 ec3d 0c15 bdbc 2a9d 723d
00000030: 9b9b 143d 7446 2f3c c424 213d 47b7 e6bd
00000040: d324 963d 2177 66be 5da0 cebd a4ff a4be
00000050: 2b79 04be c961 2abe 2630 0f3e 89f2 e9bd
00000060: dcd3 793d 9b9b 49be 37eb 99bd 47f0 c8bd
00000070: d4ae a2bc d59f a83d 06fa 323d 8f6b 27be
00000080: 3056 3ebd ab74 f83d e5e1 a9be b8d6 013e
00000090: c08d b53c 20f4 173e cce2 2bbe a087 1cbe
000000a0: 4a9e f23d d49a 9dbe a856 8dbd 8287 4ebe
000000b0: 4125 a93c 0e09 ec3d 4788 95be 4500 113d
000000c0: 6bbb 873d cec1 5cbe fee7 44bd 8fdb 46bd
000000d0: 0afb 04be 140c fa3d 98ab f0bd d6d6 44be
000000e0: f036 9dbe 230c 463d c40e 2ebe ce09 953c
000000f0: 0f61 89be 50aa 4bbe dc07 ffbd 3057 4cbb
00000100: a1b6 38bd 57e1 56be 2cb2 2c3d cbe4 13be
00000110: fba7 a1bd c42f 113e cb6f fbbd 2d92 89be
00000120: 0afc 3c3e c316 43be 0945 96bd 35bd 013e
00000130: 68b5 333e 5b65 3d3d d5e8 f33a a0ce cd3d
00000140: 5c18 04bd 4e72 b4bd a5e4 ae3d a216 bd3d
00000150: add8 0e3e 2443 623d 3d5d 36bd 01fe 163e
00000160: f58d e2bd 4433 043e ece4 5fbe fa82 d5be
00000170: 3a90 953d 38db 083e 8e70 2bbe b0ba a23d
00000180: 8b22 6fba 957a 21be 3565 d93d 6fd6 82bc
00000190: 6042 ccbd b211 e03d 5453 e33c 1ff7 18bd
000001a0: 67ce e53b 8383 4d3d aa65 83be b1f6 b93d
000001b0: 4f56 00be c8ec 113d eaa0 89bc 0356 183d
000001c0: b63e 503d b463 f33c 1df4 d13c 0abc 7c3d
000001d0: 54c2 65be b074 c9bd 5fb8 e93d 396b a0be
000001e0: 69cb d3be 939a b03d a4a3 80bc b300 9ebe
000001f0: 2ed8 a6bc b527 f23d 9ac9 b03c faec f73c
00000200: bf30 1abd 88ec a8bc 3185 283e cb21 13be
00000210: 0e62 323e 5bc4 59bd 4192 ab3c 0108 05be
00000220: 9e67 dbbd f56f dcbc b667 8fbd 23cc 663d
00000230: 6eda 17bc 3a0d 2cbd 0828 f83d 569c 01be
00000240: aca9 10bc 4ef2 4ebd 6097 78bd f173 c9bc
00000250: 8d24 dc3d 9c8a ce3d 5905 213b 27e7 55be
00000260: ac2f 84be 7eff 83be 767b e2bd cb55 b5bd
00000270: bb79 4ebd d01a 8c3d ed65 ac3d 088d 3abe
00000280: 3a49 3fbe eb3d 4f3d f76c 843b 9857 16be
00000290: 2ffb 61bd 120a 3fbb 164c 823d e820 f03c
000002a0: 8b66 053e 20c4 063e 228a 753b 8160 9e3d
000002b0: 68bc 833d 80c4 15bd 4bd3 763c 1a43 cfbd
000002c0: e0d2 5abd ed1b adbd bf93 16be dc6c f63d
000002d0: 0d12 f63d f62b 49bd 9b54 3cbb 9db8 623d
000002e0: 2f76 703d 8f74 c73d 94ac ee3d 5a59 9b3a
000002f0: 4724 04be 6a02 a63c 4f0b 09bb 86d5 80be
00000300: e290 843c 513f 123e 90b0 a63c c2f9 5e3d
00000310: 7cab fcbc b54d 17bc 62df aa3d 4e3a 0d3e
00000320: a16b 82be 9b4d 05bd 08b9 423c d07f 61bd
00000330: 2075 3ebe 93ee 56bd a8a8 413c 9db4 2bbe
00000340: 1ddb 0ebe 8844 ad3d 78f7 973d e9bc 80bd
00000350: 2e17 0fbd 7ac4 b3bd 16d9 91bd 7492 90bd
00000360: a694 0ebe 0c0f 9e3c ba87 273e 0df4 9ebd
00000370: 3b70 d2bd 023c 113e 0832 41bd 59ba 26bd
00000380: 1632 7abd 4ca7 fe3d ca87 74bd 9470 13bd
00000390: 5999 dc3d b55f a8bc c8e6 4d3d bf44 ea3d
000003a0: 3e67 ac3c 318b aabd 60f3 63bc ead1 a7bd
000003b0: 83d5 9ebd 56fd 5dbd 21d3 b6bd 35be afbc
000003c0: b83f 84bc 0fdd 5abd 3bb7 f4bc 8fc8 103d
000003d0: ce9c 5bbd f06a 52be 708e 183e 94cf 8b3c
000003e0: cfa2 97bd a8f5 4bbd 1780 df3c e853 af3d
000003f0: 0b95 f1bb 0433 b43b c45a d33c 49d7 afbd

fc3.bias f4 [10]
0.017869702 -0.082334675 0.15457924 -0.36514202 0.10387764 -0.25764185 -0.15306862 -0.21509835
0.42890587 0.12112057
00000000: 7b63 923c 159f a8bd 054a 1e3e e5f3 babe
00000010: cdbd d43d a2e9 83be 05be 1cbe be42 5cbe
00000020: 8d99 db3e 100e f83d
